st_gcn_ev_grid.pth (torch, 80181 bytes, 10 tensors)

gcn1.bias f4 [64]
0	0xbd65f164	-0.05613841
1	0x00000000	0.0
2	0x00000000	0.0
3	0x3d5602c1	0.05224872
4	0x00000000	0.0
5	0x00000000	0.0
6	0xbc3224a3	-0.010872993
7	0xbd3172ed	-0.043322492
8	0xbc0e804d	-0.0086975815
9	0xbc36fd1f	-0.011168747
10	0xbd161049	-0.036636624
11	0x3c89ac63	0.016805833
12	0x00000000	0.0
13	0xbd5974c9	-0.05308989
14	0x00000000	0.0
15	0x3c1605fa	0.009156698
16	0xbcdb2a70	-0.026753634
17	0x00000000	0.0
18	0xbc3fa8ed	-0.01169799
19	0x00000000	0.0
20	0x00000000	0.0
21	0x00000000	0.0
22	0x00000000	0.0
23	0x00000000	0.0
24	0x00000000	0.0
25	0xbd1f4092	-0.03887994
26	0x3c35efdb	0.011104549
27	0x3cd7a9fb	0.02632617
28	0x00000000	0.0
29	0xbd13484a	-0.035957612
30	0xbd93900b	-0.072052084
31	0xbaa8d506	-0.0012880869
32	0x3d0c5244	0.034258142
33	0x379a0d46	1.8364412e-05
34	0x00000000	0.0
35	0xbc841098	-0.016121194
36	0xbbb89a05	-0.005633595
37	0xbc95fc60	-0.018308818
38	0x00000000	0.0
39	0x3af6aa87	0.0018819132
40	0xbce1a83b	-0.027546039
41	0xbd07695f	-0.033059474
42	0x00000000	0.0
43	0xbc844db1	-0.016150327
44	0xbace4e6b	-0.0015739923
45	0x00000000	0.0
46	0xbcaabc47	-0.02084173
47	0xbd0cd77e	-0.034385197
48	0xbcb6eb1a	-0.022328902
49	0xbcdb123a	-0.02674209
50	0x00000000	0.0
51	0xbd1d4f5f	-0.038405772
52	0xbd427747	-0.047477033
53	0xbd518795	-0.05115469
54	0x00000000	0.0
55	0xbcf1c475	-0.029512623
56	0x3d4e22ea	0.050326265
57	0xbbd6343b	-0.006536988
58	0x00000000	0.0
59	0x3bcd4d49	0.0062653166
60	0x00000000	0.0
61	0xbd2c781f	-0.042106744
62	0xbc7b4831	-0.015337036
63	0x00000000	0.0

gcn1.lin.weight f4 [64, 3]
0	0x3e46d4f3	0.19417171
1	0x3dab1832	0.08354224
2	0xbd89efe6	-0.0673521
3	0xbe0f296f	-0.1398065
4	0xbcb44560	-0.022005737
5	0xbe257854	-0.16159183
6	0xbe363b64	-0.17796093
7	0xbe8b95cc	-0.27262723
8	0xbd5d7b80	-0.054072857
9	0xbe6b3d8e	-0.229727
10	0x3eac7165	0.33680263
11	0x3e4678de	0.19382045
12	0xbd9d99d8	-0.07695359
13	0xbdc6d2ec	-0.09708199
14	0x3d652388	0.05594209
15	0xbe7c01d4	-0.24610072
16	0x3d36e138	0.04464838
17	0xbdc7671a	-0.09736462
18	0x3d987c09	0.07445533
19	0x3deeea9e	0.116658434
20	0x3e732da6	0.23747882
21	0x3e21cee9	0.15801586
22	0x3e0ec4bb	0.13942234
23	0xbe1d7108	-0.15375149
24	0xbe5f470e	-0.21804449
25	0x3e0e388c	0.13888758
26	0x3cd12570	0.025530547
27	0xbdb72497	-0.08942526
28	0xbded9905	-0.11601452
29	0x3e21be39	0.1579522
30	0x3e48179e	0.19540259
31	0xbdd2bdad	-0.10290084
32	0xbb638f22	-0.0034722765
33	0x3e911f6c	0.28344285
34	0x3d7a4191	0.061097685
35	0x3d788b19	0.06067953
36	0xbe7994a0	-0.24373102
37	0x3e362c72	0.17790392
38	0xbe8ec73d	-0.27886382
39	0x3e52ebe6	0.205978
40	0xbd5a80d0	-0.0533455
41	0x3ce313cf	0.027719406
42	0x3b41ed80	0.0029591024
43	0xbe4e7c70	-0.20164657
44	0xbdb5719c	-0.0885956
45	0x3e45aec8	0.19304955
46	0xbe7b45f8	-0.2453841
47	0x3d8b98d0	0.06816256
48	0x3e3ccd98	0.18437803
49	0xbe07cb50	-0.13261151
50	0xbdbac038	-0.09118694
51	0xbe4cdeac	-0.20006818
52	0xbe93eed4	-0.2889315
53	0xbe21fdba	-0.15819445
54	0xbd3fa2ed	-0.046786238
55	0x3e8107f5	0.25201383
56	0x3dc03107	0.09384351
57	0xbe833734	-0.25628054
58	0xbe003273	-0.12519245
59	0xbd74eccc	-0.05979614
60	0x3d311d18	0.043240637
61	0xbaa98400	-0.0012933016
62	0xbdb9babe	-0.09068821
63	0xbe85bbd8	-0.26119876
64	0xbe8fa697	-0.28056785
65	0xbcdb91a0	-0.026802838
66	0x3d1d68c8	0.038430005
67	0x3ccc6010	0.02494815
68	0xbde210d6	-0.110383675
69	0xbe670f7d	-0.22564502
70	0xbd59bfe0	-0.053161502
71	0xbe4617fd	-0.19345088
72	0xbd8ef5b4	-0.06980458
73	0xbdce2506	-0.100656554
74	0xbe1a2d6d	-0.15056391
75	0x3de3b79b	0.11119004
76	0xbd4e8035	-0.050415237
77	0x3e2809c1	0.16409971
78	0x3e8846ed	0.26616612
79	0xbe6cf32b	-0.23139636
80	0xbdbe856f	-0.09302794
81	0x3e2aef5e	0.16692874
82	0x3e96beef	0.29442546
83	0x3e6a371d	0.22872587
84	0xbdc8e9a0	-0.098101854
85	0xbb958480	-0.0045629144
86	0xbe89b649	-0.26896885
87	0x3e0d008a	0.13769737
88	0xbe81510b	-0.25257143
89	0x3e983f25	0.29735675
90	0x3e42f789	0.1903974
91	0x3d1776cd	0.03697853
92	0xbb97ba79	-0.0046303836
93	0x3e706694	0.2347663
94	0x3eab161d	0.3341531
95	0xbe189aed	-0.1490285
96	0xbe90d41e	-0.28286833
97	0x3eb60678	0.3555181
98	0x3e984aa6	0.29744452
99	0xbd839f04	-0.06426814
100	0x3eb6074e	0.35552448
101	0x3ddab6a2	0.10679366
102	0xbe8a94b3	-0.27066574
103	0xbd4e62bc	-0.05038713
104	0xbe708b26	-0.23490581
105	0xbe9cd344	-0.30629933
106	0x3e87bcd4	0.26511252
107	0x3cf2fbd0	0.02966109
108	0x3e83f25c	0.25770843
109	0x3e21691d	0.15762754
110	0x3e132d81	0.14372827
111	0xbdc0ce83	-0.09414389
112	0xbe3e1bb7	-0.1856526
113	0x3e8b2300	0.2717514
114	0xbc406260	-0.011742204
115	0x3db63158	0.0889613
116	0xbe3e86ba	-0.18606082
117	0x3e68a9f4	0.22721082
118	0xbeafcc15	-0.3433539
119	0x3dbe6295	0.09296147
120	0x3e81c911	0.25348714
121	0xbdadd852	-0.084885255
122	0x3d69cbba	0.057079054
123	0x3e67e8a1	0.22647335
124	0x3de9f4b7	0.11423629
125	0x3e2ab951	0.16672255
126	0xbaa2eb00	-0.0012429655
127	0xbd139938	-0.036034793
128	0xbe389856	-0.18026862
129	0x3e25f264	0.16205746
130	0xbeabe934	-0.33576357
131	0x3e14c472	0.14528063
132	0x3e031d9f	0.12804268
133	0x3e3bbcb7	0.18333708
134	0x3e3df4f8	0.1855048
135	0xbe931c2e	-0.28732437
136	0x3d97b6b0	0.07407892
137	0xbdd5423a	-0.10413022
138	0x3e32625e	0.17420337
139	0xbc32523d	-0.010883865
140	0x3d927dbf	0.071528904
141	0xbd80f881	-0.06297398
142	0xbde1b6de	-0.11021207
143	0x3e0ccfa6	0.13751087
144	0x3dc34863	0.09535291
145	0xbe7f23c4	-0.24915987
146	0x3e0a2429	0.13490357
147	0x3e7e9f28	0.24865401
148	0xbdfb9b24	-0.1228545
149	0x3def28df	0.116777174
150	0xbe8816dc	-0.2657994
151	0xbe7f1704	-0.24911124
152	0xbdeb6656	-0.114941284
153	0x3e223938	0.1584214
154	0xbe3ea9e5	-0.18619497
155	0x3e8e6458	0.2781093
156	0x3def53eb	0.11685928
157	0x3c8192e4	0.015817113
158	0x3c3397e7	0.010961509
159	0x3e23b707	0.15987788
160	0x3d9c960b	0.07645806
161	0xbe6042cc	-0.21900481
162	0xbe6490ab	-0.22320811
163	0x3e0c5620	0.13704729
164	0xbe25f1b9	-0.16205491
165	0x3e9a3bcf	0.30123755
166	0xbe9877ba	-0.29778844
167	0x3e219ca5	0.15782411
168	0xbe35dd4d	-0.17760201
169	0x3e97a454	0.2961756
170	0x3e1809fe	0.14847562
171	0xbe2f45f2	-0.17116526
172	0x3e1712fb	0.14753334
173	0x3a9bd36c	0.001188857
174	0xbdad6b1c	-0.08467695
175	0xbd19e9a8	-0.037576348
176	0xbdb9b0ae	-0.09066902
177	0xbe704735	-0.23464663
178	0x3e8754dd	0.26431933
179	0x3e6d11d0	0.23151326
180	0x3d9cf0f8	0.07663149
181	0x3c1722e0	0.009224623
182	0xbe037a97	-0.12839733
183	0x3d0998c7	0.033592965
184	0x3c2a0859	0.010377967
185	0x3e8da11f	0.27661988
186	0xbe86d845	-0.26336876
187	0xbd8250f2	-0.06363095
188	0x3e85e1bd	0.26148787
189	0x3d20ec30	0.039287746
190	0xbe8e946d	-0.27847615
191	0xbe66ad68	-0.22527087

gcn2.bias f4 [64]
0	0x3b7198bf	0.0036864725
1	0x3cb3f756	0.021968525
2	0x3cc80be9	0.024419742
3	0xbc5901a6	-0.013245022
4	0x3c9221d1	0.01783839
5	0x3c22a42d	0.009926838
6	0x00000000	0.0
7	0xbb89a3ef	-0.0042004506
8	0x3d1fdc62	0.039028533
9	0xbc5ce9b4	-0.013483454
10	0xbbd23f85	-0.0064162635
11	0x00000000	0.0
12	0xbc8fad6a	-0.017538745
13	0x3d04a531	0.0323841
14	0xbc2f65db	-0.010705437
15	0xbcbc923e	-0.023018952
16	0xbd084341	-0.033267263
17	0x3b89a735	0.004200841
18	0xbc4e1237	-0.012577585
19	0xbc9f5b71	-0.019452782
20	0xbba7e7ab	-0.0051240525
21	0x3b43887b	0.0029835987
22	0x00000000	0.0
23	0x3cb4ace9	0.022055106
24	0xbc604509	-0.013688334
25	0x3b4ef04c	0.0031576334
26	0x00000000	0.0
27	0x3b85bc0e	0.0040812558
28	0x3c8e942b	0.017404636
29	0x3ce6aa29	0.02815731
30	0xbcab12ff	-0.020883081
31	0xbc7658b0	-0.015035793
32	0x00000000	0.0
33	0x3cdb2dfa	0.026755322
34	0xbcc99bce	-0.024610426
35	0x3a89eb2b	0.0010522356
36	0x3b5b692a	0.003347943
37	0x3be8c062	0.007103012
38	0xbbc8acd3	-0.006124118
39	0xbc2d0674	-0.010560621
40	0xbc755042	-0.014972748
41	0x3c6f78b9	0.014616185
42	0x3bf71993	0.0075408905
43	0x3cff0820	0.031131804
44	0x00000000	0.0
45	0x3d085c0b	0.033290904
46	0x3c2d3090	0.01057066
47	0x3cb0068d	0.021487499
48	0x3cc2b469	0.023767667
49	0x3b926d1f	0.0044685747
50	0x00000000	0.0
51	0x00000000	0.0
52	0x3c26106b	0.01013575
53	0x3d08927e	0.03334283
54	0x00000000	0.0
55	0xbce1f3ef	-0.027582137
56	0x3b54a35b	0.0032446
57	0x3cd85571	0.02640793
58	0xbc65a379	-0.014016026
59	0xbca1c7d0	-0.019748598
60	0xbccdf92a	-0.025143225
61	0x00000000	0.0
62	0x3d0fd3e5	0.035114188
63	0x3c8f27d0	0.017475039

gcn2.lin.weight f4 [64, 64]
0	0x3ddeec3b	0.10884901
1	0xbd432a1c	-0.04764758
2	0x3e327cb7	0.17430387
3	0x3dc91b1c	0.09819624
4	0xbdead2b5	-0.114659704
5	0xbe179e40	-0.14806461
6	0xbe15a9fd	-0.14615627
7	0xbd1ec01a	-0.03875742
8	0xbe4c4422	-0.19947866
9	0xbe260f7f	-0.16216849
10	0x3e202305	0.15638359
11	0x3e460170	0.19336486
12	0x3d58d0e4	0.05293359
13	0x3e30ca79	0.17264737
14	0x3e36787f	0.17819403
15	0xbded7e6d	-0.115963794
16	0xbe324158	-0.17407739
17	0xbddef5c9	-0.108867235
18	0x3e618090	0.22021699
19	0xbe01dba1	-0.12681438
20	0xbd526004	-0.0513611
21	0x3e5b445b	0.21412794
22	0xbd46df40	-0.04855275
23	0x3dfaf7ce	0.12254296
24	0x3de7f0fa	0.113252595
25	0x3db9b1ed	0.0906714
26	0xbee6d0cd	-0.45081177
27	0xbd82329a	-0.06357308
28	0x3e40a05b	0.18811171
29	0xbe2910a0	-0.16510248
30	0xbd2176cf	-0.039419945
31	0xbcd82fd2	-0.02638999
32	0x3e137908	0.14401639
33	0x3dd19a53	0.10234513
34	0xbe0bfc34	-0.13670427
35	0xbe28e3f8	-0.16493213
36	0x3e4c5695	0.19954903
37	0xbe1563df	-0.14588879
38	0x3d36af6c	0.04460089
39	0xbe909146	-0.28235835
40	0x3d75c515	0.060002405
41	0x3e08b419	0.13349952
42	0x3e174c7d	0.14775272
43	0xbe9552cc	-0.29164732
44	0x3d7c4c19	0.06159601
45	0x3e2a2ba5	0.16618212
46	0xbcdc853b	-0.026918998
47	0x3d1fe678	0.03903815
48	0xbe609e0d	-0.21935292
49	0xbdb8128e	-0.08987914
50	0x3d6cbb04	0.05779554
51	0x3ddf9d9c	0.109187335
52	0xbe509629	-0.20369782
53	0x3e1f8d92	0.15581349
54	0xbd8a8f6a	-0.06765635
55	0x3e199884	0.14999586
56	0x3d3cecd1	0.046124283
57	0x3daf7350	0.08566916
58	0xbe04a458	-0.12953317
59	0x3e3732a9	0.17890419
60	0x3cfa0040	0.030517697
61	0x3dff5351	0.12467063
62	0xbdcffd42	-0.10155727
63	0x3c1d00b0	0.009582683
64	0x3e0b62be	0.13611886
65	0xbe52bd3e	-0.20580003
66	0x3ddc1e56	0.107479736
67	0x3e4cc733	0.19997863
68	0x3dd0c8e6	0.10194568
69	0xbdc28b67	-0.09499245
70	0xbc624ae5	-0.013811802
71	0x3e453adb	0.19260733
72	0x3e4a2157	0.1973928
73	0x3ced38ec	0.028957807
74	0xbe3737be	-0.17892358
75	0x3c1f0888	0.009706624
76	0x3dcb1cda	0.099176124
77	0x3dd45973	0.103686236
78	0x3dd0a862	0.101883665
79	0xbe5a1586	-0.21297273
80	0x3c9fbbcd	0.01949873
81	0xbd5a8c60	-0.05335653
82	0xbe2e2de4	-0.17009693
83	0x3e1147eb	0.14187591
84	0xbd79caa4	-0.06098427
85	0xbddb213e	-0.106997
86	0xbe4a76cf	-0.19771884
87	0x3d77eedc	0.06053053
88	0xbbf85fa0	-0.0075797588
89	0x3e0c981f	0.13729905
90	0xbefdbddd	-0.49558917
91	0x3e4772d0	0.19477391
92	0x3dc7b7ca	0.09751852
93	0xbda604d4	-0.0810639
94	0xbded5c78	-0.11589903
95	0xbd21412e	-0.0393688
96	0x3d88b80c	0.06675729
97	0x3df68253	0.12036576
98	0xbe18c81f	-0.1492009
99	0xbd94e785	-0.07270721
100	0x3e05feac	0.13085431
101	0xbe0fe4f0	-0.14052176
102	0xbcf3e0c0	-0.029770255
103	0xbee94067	-0.45556948
104	0x3cac6a56	0.021046799
105	0x3e4b48c7	0.19851981
106	0xbe4ddcc7	-0.20103751
107	0xbe8ee98f	-0.27912566
108	0xbe41188b	-0.18857019
109	0x3d0feb8c	0.035136744
110	0x3d2d4483	0.042301666
111	0xbe25b16c	-0.16180962
112	0xbd175cd7	-0.036953773
113	0xbe2b6fe6	-0.16741905
114	0xbe5079df	-0.2035899
115	0x3e424338	0.18970954
116	0x3bf9fb18	0.0076288097
117	0xbe0e3c15	-0.13890107
118	0xbd7081b4	-0.058717445
119	0x3e15ff8f	0.14648269
120	0xbdd3dfeb	-0.10345443
121	0x3dd8588f	0.10563766
122	0x3d42621c	0.047456846
123	0x3e00f1e8	0.1259228
124	0x3dc30a4a	0.09523447
125	0xbe0430b3	-0.12909202
126	0xbd0bc176	-0.034120046
127	0xbcbf6320	-0.023362696
128	0x3e652374	0.22376806
129	0x3ddf2d62	0.10897328
130	0xbdef494a	-0.11683901
131	0x3e724813	0.23660307
132	0xbd2d8a58	-0.042368263
133	0x3d6d42ec	0.05792515
134	0x3e010c95	0.12602456
135	0xbbba0d55	-0.005677859
136	0x3d15cc3c	0.036571726
137	0x3dd33776	0.10313313
138	0x3e39d634	0.18148118
139	0x3df04993	0.11732783
140	0x3e0e7cdd	0.13914819
141	0x3e35fb7f	0.1777172
142	0xbc2890c0	-0.010288417
143	0xbd5daa4b	-0.054117482
144	0xbcd9c1c1	-0.026581647
145	0x3e237cff	0.15965651
146	0xbd564fcc	-0.052322194
147	0xbde50a35	-0.111835875
148	0xbe55ebc2	-0.20890716
149	0xbc9092b0	-0.017648071
150	0x3de9ef4e	0.11422597
151	0x3e1ba4ff	0.1519966
152	0x3e0bd8ed	0.1365697
153	0x3ddb5ebd	0.10711429
154	0xbdb3d062	-0.0877998
155	0x3d1e78b0	0.038689315
156	0x3d767724	0.060172215
157	0xbd099844	-0.033592477
158	0x3cf7accf	0.030233769
159	0x3d279989	0.040917907
160	0x3e3c3398	0.18379056
161	0x3db196d4	0.08671346
162	0x3e344897	0.17605816
163	0x3e1de71b	0.15420191
164	0xbe2b0ffd	-0.16705318
165	0xbe0574fd	-0.13032909
166	0x3e35c49b	0.1775078
167	0xbf08cffc	-0.5344236
168	0xbe31e24a	-0.17371479
169	0x3d3ca8c1	0.046059374
170	0x3c4d7fe0	0.012542695
171	0xbeccd5cf	-0.40006873
172	0xbcc71ac3	-0.024304753
173	0xbd19f0c0	-0.037583113
174	0x3e19aef2	0.15008143
175	0xbe4f679c	-0.20254368
176	0x3d8a650b	0.06757554
177	0x3e459e84	0.1929875
178	0x3c966e98	0.018363282
179	0x3e033246	0.12812147
180	0xbe10f919	-0.14157523
181	0x3e5b08c5	0.21390064
182	0xbdffffa9	-0.12499935
183	0xbe2a8e91	-0.16655947
184	0x3da2eee2	0.079557195
185	0x3e2cc708	0.168728
186	0x3e514c6d	0.2043931
187	0xbde073af	-0.10959565
188	0xbe400568	-0.18752062
189	0xbd9b3d32	-0.075800315
190	0xbe2fb623	-0.17159323
191	0x3dd6e656	0.10493152
192	0x3e21044e	0.15724298
193	0xbe02155c	-0.1270346
194	0x3e477901	0.19479753
195	0xbe21e31a	-0.15809289
196	0xbe4000c9	-0.187503
197	0x3e46329f	0.19355248
198	0xbddea975	-0.10872165
199	0x3dc4b534	0.09604874
200	0x3e34d349	0.17658724
201	0x3d8c3970	0.06846893
202	0x3d645314	0.055743292
203	0xbd8d8dd9	-0.06911821
204	0x3d82638a	0.06366642
205	0x3be93a3a	0.007117537
206	0x3cc09d50	0.023512512
207	0x3db63fa2	0.08898856
208	0xbd92c059	-0.07165594
209	0x3dfdf6ae	0.12400566
210	0x3e3bfaa3	0.18357329
211	0x3d89c1ba	0.067264035
212	0x3cff5b90	0.03117159
213	0x3dc11e12	0.094295636
214	0x3e53485b	0.2063307
215	0x3e24085b	0.16018812
216	0xbb5d2940	-0.003374651
217	0x3e3f37d1	0.18673636
218	0xbe27e167	-0.16394578
219	0xbd917f9a	-0.07104416
220	0xbd3ddb68	-0.04635182
221	0xbcb1a1d4	-0.021683611
222	0xbe0db27a	-0.13837615
223	0x3e4d1cc8	0.2003051
224	0xbe577528	-0.21040785
225	0x3d72640e	0.05917745
226	0xbd39cae0	-0.045359492
227	0x3e3ae5c0	0.18251705
228	0x3dd7a903	0.10530283
229	0x3e07b83b	0.13253872
230	0x3d9e129e	0.07718395
231	0xbe19efcd	-0.15032883
232	0xbcf1d8de	-0.029522356
233	0xbddfd5d3	-0.109294556
234	0xbcb9f820	-0.022701323
235	0xbd163d57	-0.036679592
236	0xbe193be6	-0.14964256
237	0xbe170cd5	-0.14750989
238	0xbdd79abe	-0.105275616
239	0xbbfbf08d	-0.007688588
240	0x3e06f649	0.13179888
241	0x3e3e9859	0.18612804
242	0xbbf97900	-0.0076133013
243	0xbdd8abb6	-0.10579626
244	0x3d08cbf5	0.033397634
245	0x3dc630ab	0.096772514
246	0xbe08ca6f	-0.13358472
247	0xbcf180e6	-0.029480409
248	0x3da15731	0.078779586
249	0x3d4953d1	0.0491522
250	0xbd300be0	-0.042980075
251	0xbe5c693b	-0.21524517
252	0xbe39c5c0	-0.18141842
253	0xbb54bd5f	-0.0032461507
254	0x3e30403f	0.17212008
255	0xbe22d917	-0.15903126

temporal_conv.0.weight f4 [64, 64, 3]
0	0x3cb94bf8	0.022619233
1	0x3cab0b52	0.020879421
2	0x3d0db514	0.034596518
3	0xbd948147	-0.0725122
4	0x3b04752e	0.0020211446
5	0xbcf82615	-0.030291596
6	0xbd3c6cd5	-0.046002228
7	0xbd3ac338	-0.04559633
8	0xbd9a5153	-0.075350426
9	0x3c132e5c	0.008983221
10	0x3c5c6ec5	0.013454144
11	0xbd1ac4c6	-0.037785314
12	0xbc8d32cd	-0.017236138
13	0xbd452e49	-0.048139844
14	0xbd7d52e2	-0.06184662
15	0xbc013354	-0.007885773
16	0xbd91035f	-0.07080721
17	0xbd56fe1a	-0.052488424
18	0xbca5ba62	-0.020230476
19	0x3d5b6914	0.053567007
20	0xbc87c064	-0.016571231
21	0x3d44341e	0.047901265
22	0x3ccf91f7	0.025338156
23	0x3c32bfc0	0.010909975
24	0xbc1f5f11	-0.009727255
25	0x3d5c1004	0.05372621
26	0x3b80947c	0.0039239507
27	0xbd952396	-0.07282178
28	0xbd448832	-0.04798145
29	0xbd3d61ff	-0.046236034
30	0x3d79c904	0.06098272
31	0x3c8b5c94	0.017011918
32	0xbc99b1b8	-0.0187615
33	0xbd532dc8	-0.051557332
34	0xbc991bbc	-0.018689983
35	0x3d9063ac	0.07050261
36	0x3a87c321	0.0010357836
37	0xbd29e680	-0.041479588
38	0x3d64da7d	0.05587243
39	0xbc07f934	-0.008299161
40	0xbc0c6610	-0.0085692555
41	0xbd9a2ec7	-0.07528453
42	0xbd99bea4	-0.07507065
43	0x3d387916	0.04503735
44	0xbd830a9c	-0.06398508
45	0x3cabdd80	0.020979643
46	0x3c450ac3	0.012026492
47	0xbd77dba0	-0.060512185
48	0x3cd4e99d	0.025990302
49	0xbcb55052	-0.022133026
50	0xbd02e9ac	-0.031961128
51	0xbd51216a	-0.051057257
52	0x3d62eaac	0.05539958
53	0xbd03c2d9	-0.032168243
54	0xbd2ec07e	-0.042664044
55	0x3c986274	0.018601634
56	0xbc8f2ce2	-0.017477456
57	0x3d6f5cd7	0.05843815
58	0xbc9a6c6a	-0.018850524
59	0x3da2493a	0.07924123
60	0xbc9a7f4e	-0.018859532
61	0xbd9c0591	-0.07618249
62	0x3d2f4c50	0.042797387
63	0xbd2bcec5	-0.041945238
64	0x3c605f93	0.013694662
65	0xbd1f3c57	-0.038875904
66	0xbd60c3dd	-0.05487429
67	0x3d1dbdb0	0.03851098
68	0xbd743c3c	-0.059627756
69	0x3d18ce34	0.037306026
70	0xbda7c3b8	-0.08191627
71	0xbd6d70eb	-0.057969015
72	0xbd8168aa	-0.06318791
73	0xbcb91216	-0.022591632
74	0x3b8a0730	0.0042122826
75	0xbd535286	-0.051592372
76	0x3b0bb1c0	0.0021315664
77	0x3d5b2094	0.053497866
78	0x3d929a20	0.07158303
79	0xbd2356a8	-0.039877564
80	0x3c86db28	0.016461924
81	0x3d4510e5	0.048111815
82	0xbc1fcbbe	-0.009753166
83	0x3c8f5dde	0.017500814
84	0xbbe944b7	-0.007118787
85	0x3d16733b	0.036730986
86	0xbd91d85e	-0.07121347
87	0xbd2ff57e	-0.04295873
88	0x3d0294cb	0.03188018
89	0xbd856c17	-0.06514757
90	0xbc992a2c	-0.018696867
91	0xbd9bf0f6	-0.07614319
92	0x3d736d68	0.05943051
93	0x3b5ee578	0.0034011286
94	0xbbad5c48	-0.005290542
95	0xbcadc217	-0.021210713
96	0xbc58b2b4	-0.0132262
97	0x3cac68b8	0.021046028
98	0x39a4fe00	0.00031469762
99	0xbdab51b9	-0.08365197
100	0xbcdad6ff	-0.026713846
101	0xbce75df2	-0.028243039
102	0xbc84c9cd	-0.016209507
103	0xbd831e2a	-0.06402238
104	0xbc51acd1	-0.01279755
105	0xbd3a5f6d	-0.04550116
106	0xbd97027c	-0.07373521
107	0xbcd86c76	-0.026418906
108	0xbd7a19bc	-0.0610597
109	0x3ce128ca	0.02748527
110	0xbd40bc86	-0.04705479
111	0xbcdbccb8	-0.026831016
112	0x3bd6b148	0.0065518953
113	0x3c0fd012	0.008777635
114	0x3d2fbc9d	0.042904485
115	0x3d7f0c30	0.062267482
116	0xbd37fc01	-0.044918064
117	0xbd852db4	-0.06502858
118	0xbd5cacbb	-0.053875666
119	0x3d19d11c	0.037552938
120	0x3d83c2fe	0.06433676
121	0xbc817574	-0.015803076
122	0x3d02cd72	0.03193421
123	0x3d07dd06	0.03316977
124	0x3cf1d3c4	0.029519923
125	0xbd4172f0	-0.047228754
126	0x3cf2e15b	0.029648473
127	0x3d653a96	0.055964075
128	0xbbcd0b70	-0.006257467
129	0x3d4247d6	0.04743179
130	0x3d4a791f	0.049431916
131	0x3bba1d17	0.0056797373
132	0x3c8596a4	0.016307183
133	0x3c8110ec	0.01575514
134	0x3a081200	0.00051906705
135	0x3cc87110	0.024467975
136	0xbd8a77a4	-0.06761101
137	0xbd8d1252	-0.0688826
138	0xbc8c26a5	-0.01710827
139	0x3cee7fb6	0.029113632
140	0x3bc202a7	0.0059207263
141	0x3befdd5d	0.0073200897
142	0xbc8be241	-0.01707566
143	0xbc04e239	-0.008110576
144	0xbd4ac9e2	-0.049508937
145	0xbc8eb1c3	-0.017418748
146	0xbbaba4ea	-0.005238165
147	0xbd8294f8	-0.0637607
148	0xbd485ecb	-0.048918527
149	0xbda5808f	-0.08081161
150	0x3d551090	0.05201775
151	0x3cf4ec6c	0.029897891
152	0x3c1e7ff0	0.009674057
153	0x3c8da50c	0.017290615
154	0xbd81272e	-0.06306301
155	0x3bba4900	0.005684972
156	0xbaf6e6ef	-0.0018837134
157	0xbd8e4f0e	-0.06948672
158	0xbc8ac9b9	-0.016941892
159	0x3c1a8282	0.00943053
160	0x3cfa0c85	0.030523548
161	0xbc5f9c06	-0.013648039
162	0xbd91e568	-0.07123834
163	0xbd92cb67	-0.07167702
164	0xbd815a15	-0.0631601
165	0xbd4b4274	-0.04962392
166	0x3d67ea1c	0.05661975
167	0x3d405f37	0.046965804
168	0x3d323215	0.043504793
169	0xbda79072	-0.08181848
170	0x3b917e78	0.004440125
171	0x3cca9746	0.024730336
172	0x3cb9a699	0.022662448
173	0x3b40503a	0.0029344694
174	0xbcdda7a1	-0.02705747
175	0xbd696ed2	-0.056990452
176	0xbcf0184a	-0.029308457
177	0x3d42ba5e	0.047541015
178	0xbb63473c	-0.003467991
179	0xbcbd5ffa	-0.023117054
180	0x3cc8a478	0.024492487
181	0xbd3512be	-0.044207327
182	0xbc3d8324	-0.011566911
183	0xbc85b632	-0.016322229
184	0xbd84a0f5	-0.064760126
185	0x3d44f7ba	0.048087813
186	0x3cfec137	0.031097991
187	0xbda460bb	-0.080262624
188	0x3d609fca	0.054839887
189	0x3a5dd6ce	0.00084624893
190	0x3c338889	0.0109578455
191	0xbd9a7b97	-0.07543104
192	0xbc9650ca	-0.01834907
193	0xbca8e51a	-0.020617057
194	0xbd34d48f	-0.044148024
195	0x3d3c6c66	0.046001814
196	0xbd5ba8be	-0.053627722
197	0x3cb03976	0.021511775
198	0xbd391746	-0.04518821
199	0xbd53794f	-0.05162936
200	0x3d2fadd0	0.04289037
201	0xbcdc5db4	-0.02690015
202	0x3d89a3c4	0.06720689
203	0x3caa5ffc	0.020797722
204	0xbbf9a4e0	-0.0076185316
205	0xbd923b9f	-0.07140278
206	0xbd1d8d09	-0.03846458
207	0xbd5156e6	-0.051108263
208	0xbcfa3204	-0.030541427
209	0xbd1ff616	-0.039053045
210	0x3c932738	0.017963037
211	0x3ce67950	0.028134018
212	0xbcec17e4	-0.028819986
213	0xbd607b8a	-0.054805316
214	0xbcddb9a7	-0.027066065
215	0xbd33036c	-0.043704435
216	0xbc7e6524	-0.0155270435
217	0x3c867f1a	0.016418029
218	0x3ca746d0	0.020419508
219	0xbd64310a	-0.05571083
220	0xbd48fa8f	-0.049067076
221	0xbd44a069	-0.04800454
222	0x3cca169c	0.024668984
223	0xbc194dc8	-0.009356923
224	0xbd340bdb	-0.04395662
225	0xbd352eb9	-0.04423401
226	0x3cb7cc9c	0.022436433
227	0x3d03bf5c	0.032164916
228	0xbd2c5f2c	-0.04208295
229	0xbd4c2ce8	-0.049847513
230	0xbd5b5ce0	-0.05355537
231	0x3d0dda34	0.034631923
232	0x3cb8846e	0.022524085
233	0xbd4abd6f	-0.049497064
234	0xbd8de8c8	-0.06929165
235	0x3d1063ef	0.035251554
236	0xbc974703	-0.018466478
237	0xbd2ba172	-0.041902013
238	0xbd8ca958	-0.06868237
239	0xbd0d7e80	-0.034544468
240	0x3d46817e	0.048463337
241	0xbca00008	-0.019531265
242	0x3bb1bc33	0.0054240464
243	0xbc22d778	-0.009939067
244	0xbd41c056	-0.047302566
245	0x3d8ad9f4	0.067798525
246	0x3d8f60e2	0.07000901
247	0xbd212b56	-0.03934797
248	0xbbf95ed5	-0.007610182
249	0x39a80300	0.00032045692
250	0x3cc9d8b0	0.024639457
251	0x3cf28551	0.029604586
252	0xbc2f2468	-0.010689832
253	0xbd8633f4	-0.06552878
254	0xbd815eae	-0.06316887
255	0xbd91fcc0	-0.07128286

temporal_conv.0.bias f4 [64]
0	0x3cac0754	0.020999588
1	0xbd72d8b2	-0.059288688
2	0x3ad8144a	0.0016485539
3	0x3cf9504a	0.030433793
4	0xbb68a197	-0.0035496706
5	0x3ddd8f9e	0.108184084
6	0x3d247c3c	0.04015754
7	0x3c0ea45c	0.0087061785
8	0xbd03267b	-0.03201912
9	0xba17f1f0	-0.00057962444
10	0xbd594578	-0.053044766
11	0xbd1c2907	-0.038125064
12	0xbd15100a	-0.03639225
13	0x3c30a0a1	0.010780484
14	0x3ca90f2e	0.020637121
15	0x3ba32211	0.0049784263
16	0x3d633098	0.055466264
17	0x3d62c5d8	0.05536446
18	0xbcf9d37a	-0.030496348
19	0x3dbee200	0.0932045
20	0x3d1543e9	0.036441717
21	0x3d0eda68	0.034876257
22	0xbccb5b67	-0.024823857
23	0xbd0bff08	-0.034178764
24	0xbc34425a	-0.011002148
25	0x3d13d1d4	0.03608878
26	0x3c51b35a	0.012799108
27	0x3b4f2cf5	0.003161249
28	0x3d59c755	0.053168613
29	0x3d487829	0.04894272
30	0x3c9f00a7	0.01940949
31	0xbd550fd4	-0.052017048
32	0x3c767f12	0.015044944
33	0xbc9dd014	-0.019264258
34	0xbc803086	-0.015648138
35	0x3d4442a0	0.0479151
36	0x3c9e40a3	0.01931793
37	0xbc871a9f	-0.016492186
38	0x3d427d20	0.04748261
39	0x3d18a105	0.037262935
40	0x3d319c99	0.043362234
41	0xbd905f51	-0.0704943
42	0xbd3f40b3	-0.04669256
43	0xbd8037d8	-0.06260651
44	0x3c5bd410	0.013417259
45	0xbd2120b7	-0.03933784
46	0x3d78d75e	0.060752265
47	0xbca125c8	-0.019671336
48	0xbd081194	-0.03321989
49	0x3d56fb0f	0.052485522
50	0x395a1805	0.00020799048
51	0xbd137b0c	-0.03600602
52	0x3cd4ca95	0.025975505
53	0xba82d7a3	-0.0009982478
54	0xbca86e48	-0.020560399
55	0x3d013122	0.031540997
56	0xbd93808d	-0.072022535
57	0x3d4ac483	0.049503814
58	0xbce424b3	-0.02784953
59	0xbd8bbd43	-0.06823208
60	0x3da579bd	0.0807986
61	0xbd844c2e	-0.064598426
62	0x3ddebab5	0.10875455
63	0xbd18d3e7	-0.03731146

classifier.0.weight f4 [32, 64]
0	0xbd5f89e2	-0.054574855
1	0xbcab9c6a	-0.020948607
2	0x3d553a4f	0.05205756
3	0x3da99854	0.082810074
4	0x3e0a4384	0.13502318
5	0x3e1f93af	0.1558368
6	0xbd098d0a	-0.03358177
7	0xbdb09053	-0.08621278
8	0x3d1b1ff7	0.03787228
9	0xbda6948a	-0.081338
10	0xbf03a70d	-0.51426774
11	0xbecfe42f	-0.40603778
12	0x3cc1bfd4	0.023651041
13	0xbede42ca	-0.4341033
14	0x3d754b14	0.059886053
15	0xbc8ab7f4	-0.016933419
16	0x3da03451	0.078224786
17	0x3dd49a98	0.10381049
18	0xbf067fe2	-0.52538884
19	0x3d0d0177	0.034425225
20	0xbcb38462	-0.021913711
21	0x3e02004b	0.12695424
22	0xbef22d12	-0.4730001
23	0xbdf8b20a	-0.12143333
24	0x3c49ef53	0.012325126
25	0xbd97dd2d	-0.07415233
26	0xbdf03a21	-0.11729837
27	0x3b14f2c2	0.0022727703
28	0x3d4723bb	0.04861806
29	0x3bb09a9a	0.0053895237
30	0x3de269e5	0.11055354
31	0x3dbf29ba	0.093341306
32	0xbdee675e	-0.116408095
33	0xbe16f8a6	-0.1474329
34	0xbed48a82	-0.41511923
35	0x3d554740	0.052069902
36	0xbf09999d	-0.5375002
37	0xbe79c96f	-0.24393247
38	0xbd63927d	-0.055559624
39	0xbdfdfc58	-0.124016464
40	0xbbc3c7f6	-0.005974765
41	0xbee5adfc	-0.44859302
42	0xbd972b1f	-0.073812716
43	0xbefc28dd	-0.49249926
44	0xbd8154d2	-0.06315006
45	0xbd8ad530	-0.067789435
46	0xbdf12f65	-0.11776618
47	0xbed5228c	-0.4162792
48	0x3e0c94af	0.13728593
49	0x3e2cd549	0.16878237
50	0xbd9831bd	-0.07431362
51	0x3d8ea448	0.06964928
52	0x3dae903f	0.085236065
53	0x3d89563a	0.067058995
54	0x3d94af1d	0.07259963
55	0xbd8df6e4	-0.06931856
56	0x3daa2102	0.08307077
57	0x3dccf61f	0.100078814
58	0xbb548830	-0.0032429807
59	0xbd46e87d	-0.04856156
60	0x3ba4123a	0.0050070556
61	0x3dc30843	0.0952306
62	0x3debc3a8	0.11511928
63	0xbdeeea65	-0.11665801
64	0xbb958819	-0.0045633432
65	0x3bab0d20	0.0052200705
66	0x3d2ba5dc	0.041906223
67	0xbd1985dd	-0.037481178
68	0x3a8b09f3	0.0010607823
69	0xbda5e534	-0.08100358
70	0xb925745b	-0.00015778972
71	0x3d79a0ac	0.060944244
72	0xbd82448a	-0.06360729
73	0xbc5b6edb	-0.013393129
74	0x3a18bab5	0.00058261614
75	0x3d0031cc	0.03129749
76	0xbd912eed	-0.070890285
77	0xbdc084d9	-0.09400339
78	0x3d9f5e21	0.077816255
79	0xbe03a9f6	-0.12857804
80	0xbded236c	-0.11579022
81	0xbdb3733c	-0.087622136
82	0xbc86c9c8	-0.016453639
83	0x3dbadba6	0.09123926
84	0xbda8cc47	-0.08242088
85	0x3de20b14	0.11037269
86	0xbd469d40	-0.04848981
87	0xbda063e0	-0.0783155
88	0x3dc9051b	0.09815427
89	0xbdaa150a	-0.08304794
90	0xbc458b18	-0.012057088
91	0x3cea9629	0.028636055
92	0x3ac43ef0	0.001497237
93	0xbd8bbddf	-0.068233244
94	0xbe093c0a	-0.1340181
95	0xbd23ffb1	-0.04003877
96	0xbd42d28f	-0.047564086
97	0xbde0903f	-0.10965013
98	0x3df2a086	0.11847024
99	0x3d6e33c4	0.058154836
100	0xbdb44c39	-0.08803601
101	0xbde7ba4c	-0.1131483
102	0xbdc14354	-0.0943667
103	0xbd4b2ff0	-0.049606264
104	0x3d7f748b	0.062367003
105	0x3c2100bc	0.009826835
106	0xbde3b6d8	-0.11118859
107	0xbdca396e	-0.09874235
108	0x3d4ac1ba	0.04950116
109	0x3a6ebe36	0.0009107323
110	0xbc4ac175	-0.012375225
111	0xbda00760	-0.07813907
112	0x3be7ae0f	0.00707031
113	0xbcba835d	-0.022767717
114	0x3d8bb9a8	0.068225205
115	0xbcc012e7	-0.023446513
116	0x3dd873e3	0.10568979
117	0xbdb4182e	-0.087936744
118	0xbde8fe11	-0.11376584
119	0x3d1a96c4	0.037741438
120	0x3dcd2625	0.10017041
121	0x3d3d161b	0.04616366
122	0xbdfd74ec	-0.12375817
123	0xbddfa079	-0.109192796
124	0x3cd41323	0.025888031
125	0xbcafd292	-0.021462712
126	0x3d8a74e1	0.06760574
127	0x3cfba17c	0.03071665
128	0xbd6239e8	-0.055231005
129	0x3d68ce60	0.05683744
130	0xbdf883e8	-0.12134534
131	0x3dbed162	0.0931728
132	0x3da817cc	0.08207664
133	0xbd10c618	-0.035345167
134	0x3d908cae	0.070580825
135	0x3d9dd4ee	0.07706629
136	0x3d3c2dbc	0.045942053
137	0xbd863b08	-0.06554228
138	0xbc961db0	-0.018324703
139	0x3cc4e768	0.024036124
140	0xbd9b094e	-0.07570134
141	0x3cb55168	0.022133544
142	0xbcf2e378	-0.029649481
143	0xbdd150be	-0.102204785
144	0xbcfd0280	-0.030884981
145	0x3d8d0fc6	0.06887774
146	0x3d63c0e4	0.055603877
147	0x3cf4f598	0.029902264
148	0x3dd135fe	0.10215376
149	0x3d9adb14	0.07561317
150	0xbdd9f14a	-0.10641725
151	0x3d8a41ba	0.067508176
152	0x3db61fcc	0.088927835
153	0x3da6ff1a	0.081541255
154	0xbdbfd37c	-0.09366509
155	0x3ca81c48	0.020521298
156	0xbdaf26a4	-0.08552292
157	0x3de6647e	0.11249636
158	0x3dde1bfc	0.10845181
159	0x3d87dbea	0.06633742
160	0x3d5e522c	0.054277584
161	0x39ffd400	0.00048795342
162	0xbda7728e	-0.081761464
163	0xbbf37300	-0.0074294806
164	0x3ccdd490	0.025125772
165	0xbd1b2f6c	-0.037887022
166	0xbc1dc0f0	-0.009628519
167	0x3c587e60	0.013213724
168	0xbdf5d848	-0.12004143
169	0x3dcb1aaa	0.09917195
170	0xbdd943d2	-0.10608639
171	0x3d00455c	0.031316146
172	0xbdddeb20	-0.10835862
173	0x3d3f6eac	0.046736404
174	0xbdacdd58	-0.084406555
175	0xbd8acd8a	-0.06777485
176	0xbd791510	-0.060811102
177	0xbde15572	-0.110026255
178	0x3ae8e600	0.0017768741
179	0x3c839928	0.016064242
180	0xbdaff1e0	-0.08591056
181	0xbdc8805e	-0.09790109
182	0xbdb90ff4	-0.09036246
183	0xbddfacd4	-0.10921636
184	0x3df37272	0.11887063
185	0x3b9f7c00	0.004867077
186	0xbd69c2c0	-0.057070494
187	0x3cd62458	0.026140377
188	0xbda6ddb6	-0.08147757
189	0x3dfd21a6	0.123599336
190	0xbddaedf8	-0.1068992
191	0x3deeb026	0.116546914
192	0xbdfc011d	-0.123049
193	0x3dc78ec0	0.09744024
194	0xbdf3d56f	-0.119059436
195	0x3d049304	0.032366768
196	0xbb871e56	-0.0041234894
197	0xbc5d7d18	-0.013518594
198	0x3dea048d	0.11426649
199	0xbdf307b5	-0.118667044
200	0x3d406fef	0.04698175
201	0x3c91ec5f	0.017812906
202	0x3ebf635c	0.37380493
203	0x3f097f96	0.53710306
204	0x3c467fdb	0.012115444
205	0x3ec44e43	0.3834096
206	0xbc698a09	-0.014254102
207	0xbc478f36	-0.01218014
208	0x3a43c2da	0.0007467695
209	0xbd73f66a	-0.05956117
210	0x3f008e77	0.50217384
211	0xbccb4fdf	-0.024818359
212	0x3c40d460	0.011769384
213	0x3cd6ac50	0.026205212
214	0x3f0ee59e	0.5581912
215	0xbd91c277	-0.07117169
216	0xbce9a310	-0.028520137
217	0xbdb3de4d	-0.08782635
218	0xbdbf39aa	-0.093371704
219	0x3d46c4e8	0.04852763
220	0x3dd8804d	0.105713464
221	0x3dbff4f3	0.09372892
222	0xbdaa0592	-0.08301844
223	0x3d52fe7f	0.051512238
224	0x3ce44230	0.027863592
225	0x3e8ce096	0.27515095
226	0x3ed7eaec	0.4217142
227	0x3dc68e16	0.096950695
228	0x3efaeb06	0.49007434
229	0x3e9c172d	0.30486432
230	0x3c0d60dd	0.008629051
231	0xbb6aab61	-0.0035807716
232	0xbdb12232	-0.086491
233	0x3eed7605	0.46379104
234	0x3d9241ec	0.0714148
235	0x3edd1f30	0.43187857
236	0x3d495f49	0.049163137
237	0x3d0626c0	0.0327518
238	0xbdf56c5a	-0.11983557
239	0x3ed4b5ac	0.41544855
240	0x3da73a6e	0.081654415
241	0x3dda010a	0.106447294
242	0x3e88a599	0.2668884
243	0xbd775b68	-0.060389906
244	0xbdca4177	-0.09875768
245	0xbd0c1f28	-0.0342094
246	0x3d176b4c	0.03696756
247	0x3de83800	0.11338806
248	0xbd4fda3c	-0.050745234
249	0x3dbc1fe8	0.09185773
250	0xbd89de58	-0.06731862
251	0x3dd48ea4	0.10378769
252	0x3dad7ae3	0.084707044
253	0x3d87d0f2	0.0663165
254	0xbd079cd9	-0.033108566
255	0x3d1d48e8	0.038399607

classifier.0.bias f4 [32]
0	0x3e2096bd	0.15682502
1	0x3ce88c7f	0.028387306
2	0xbda30f3a	-0.079618886
3	0xbdf5991b	-0.11992093
4	0xbd8d1a6b	-0.068898045
5	0x3df63113	0.12021079
6	0x3de71383	0.112830184
7	0x3dd76d72	0.10518922
8	0xbc0ecb49	-0.008715459
9	0xbd9f3198	-0.07773131
10	0xbd2a3c18	-0.041561216
11	0x3d0af9d5	0.033929665
12	0xbde648ca	-0.11244352
13	0x3e114bcf	0.14189075
14	0xbcca276a	-0.024676997
15	0x3e1a3b73	0.1506174
16	0xbd72b8b9	-0.059258197
17	0xbc39235f	-0.011299937
18	0xbd66332e	-0.056201153
19	0x3cbcaa94	0.023030557
20	0x3c1d675f	0.009607165
21	0xbd9852d2	-0.07437672
22	0x3d7358de	0.059410922
23	0x3d5f415d	0.054505695
24	0x3df601ed	0.12012086
25	0x3df1b28d	0.11801634
26	0x3c4e5230	0.012592837
27	0xbcbe4966	-0.023228358
28	0x3dc7e9c5	0.09761385
29	0x3d296935	0.0413601
30	0x3d1ed080	0.03877306
31	0x3d599f29	0.053130303

classifier.3.weight f4 [2, 32]
0	0x3e04c5b4	0.12966043
1	0xbdd457c2	-0.10368301
2	0xbde120df	-0.10992598
3	0xbe881486	-0.26578158
4	0x3e1fdada	0.15610829
5	0x3e52f156	0.20599875
6	0x3e739ad1	0.23789527
7	0x3e151e7a	0.14562407
8	0xbe1991ce	-0.14997026
9	0xbdb580dc	-0.088624686
10	0x3e22445f	0.15846394
11	0x3e80c8ea	0.25153285
12	0xbdea7559	-0.114481635
13	0x3e80187f	0.2501869
14	0xbefcd59b	-0.49381718
15	0x3e1cc8c6	0.15310964
16	0x3d17cb27	0.037058976
17	0x3d1d969d	0.038473714
18	0xbd992e86	-0.07479577
19	0x3dcad8f3	0.09904661
20	0x3dd73156	0.10507457
21	0xba850bff	-0.001015067
22	0x3e23c6aa	0.15993753
23	0x3e5b7af6	0.21433625
24	0x3da23e90	0.07922089
25	0x3e7e6f54	0.24847156
26	0xbe11c00c	-0.14233416
27	0xbde11599	-0.109904476
28	0xbe1f9aff	-0.1558647
29	0xbee4f48b	-0.4471782
30	0xbded20f0	-0.11578548
31	0xbee06fdb	-0.4383534
32	0xbea4d34b	-0.32192454
33	0x3dbb6473	0.091500185
34	0x3e22238b	0.15833871
35	0x3ea5a2ac	0.3235067
36	0x3df6deb5	0.12054197
37	0xbe8dfa90	-0.27730227
38	0xbe666161	-0.22498085
39	0xbe8c25fa	-0.27372724
40	0x3d94e038	0.07269329
41	0x3d98d45e	0.07462381
42	0x3da39826	0.079880044
43	0xbd132701	-0.03592587
44	0xbc3eb3ff	-0.011639594
45	0xbd9416b0	-0.0723089
46	0x3ed64e8d	0.41856804
47	0xbe36a6a9	-0.17837013
48	0x3de83aff	0.113393776
49	0x3dae1687	0.085003905
50	0xbdc2cb27	-0.095114045
51	0xbe4e23a0	-0.20130777
52	0x3df9a847	0.121902995
53	0xbe041497	-0.1289848
54	0xbe8fdef0	-0.28099775
55	0xbe8f493e	-0.27985567
56	0xbeab3681	-0.3344002
57	0xbe6037c9	-0.2189628
58	0xbdeaf0e9	-0.11471731
59	0x3e2a91b8	0.1665715
60	0xbd8cd1b0	-0.06875932
61	0x3e68b29d	0.22724386
62	0x3e101a39	0.14072503
63	0x3e9dc069	0.3081086

classifier.3.bias f4 [2]
0	0x3e20dca3	0.15709166
1	0x3dbf4ee4	0.09341219
